…
2025-05-16 10:40:34.087292: I tensorflow/core/common_runtime/gpu/gpu_device.cc:1639] Created device /job:localhost/replica:0/task:0/device:GPU:0 with 13499 MB memory:  -> device: 0, name: NVIDIA GeForce RTX 4080 SUPER, pci bus id: 0000:01:00.0, compute capability: 8.9
WARNING:absl:`lr` is deprecated in Keras optimizer, please use `learning_rate` or use the legacy optimizer, e.g.,tf.keras.optimizers.legacy.Adam.
model 0 : CNN_128_256
Model: "model"
_________________________________________________________________
 Layer (type)                Output Shape              Param #   
=================================================================
 input_1 (InputLayer)        [(None, 28, 28)]          0         
                                                                 
 reshape (Reshape)           (None, 28, 28, 1)         0         
                                                                 
 conv2d (Conv2D)             (None, 28, 28, 128)       1280      
                                                                 
 batch_normalization (Batch  (None, 28, 28, 128)       512       
 Normalization)                                                  
                                                                 
 activation (Activation)     (None, 28, 28, 128)       0         
                                                                 
 dropout (Dropout)           (None, 28, 28, 128)       0         
                                                                 
 average_pooling2d (Average  (None, 28, 28, 128)       0         
 Pooling2D)                                                      
                                                                 
 conv2d_1 (Conv2D)           (None, 13, 13, 256)       295168    
                                                                 
 batch_normalization_1 (Bat  (None, 13, 13, 256)       1024      
 chNormalization)                                                
                                                                 
 activation_1 (Activation)   (None, 13, 13, 256)       0         
                                                                 
 dropout_1 (Dropout)         (None, 13, 13, 256)       0         
                                                                 
 flatten (Flatten)           (None, 43264)             0         
                                                                 
 dense (Dense)               (None, 16)                692224    
                                                                 
 activation_2 (Activation)   (None, 16)                0         
                                                                 
=================================================================
Total params: 990208 (3.78 MB)
Trainable params: 989440 (3.77 MB)
Non-trainable params: 768 (3.00 KB)
_________________________________________________________________
None
WARNING:absl:`lr` is deprecated in Keras optimizer, please use `learning_rate` or use the legacy optimizer, e.g.,tf.keras.optimizers.legacy.Adam.
model 1 : CNN_128_384
Model: "model_1"
_________________________________________________________________
 Layer (type)                Output Shape              Param #   
=================================================================
 input_2 (InputLayer)        [(None, 28, 28)]          0         
                                                                 
 reshape_1 (Reshape)         (None, 28, 28, 1)         0         
                                                                 
 conv2d_2 (Conv2D)           (None, 28, 28, 128)       1280      
                                                                 
 batch_normalization_2 (Bat  (None, 28, 28, 128)       512       
 chNormalization)                                                
                                                                 
 activation_3 (Activation)   (None, 28, 28, 128)       0         
                                                                 
 dropout_2 (Dropout)         (None, 28, 28, 128)       0         
                                                                 
 average_pooling2d_1 (Avera  (None, 28, 28, 128)       0         
 gePooling2D)                                                    
                                                                 
 conv2d_3 (Conv2D)           (None, 13, 13, 384)       442752    
                                                                 
 batch_normalization_3 (Bat  (None, 13, 13, 384)       1536      
 chNormalization)                                                
                                                                 
 activation_4 (Activation)   (None, 13, 13, 384)       0         
                                                                 
 dropout_3 (Dropout)         (None, 13, 13, 384)       0         
                                                                 
 flatten_1 (Flatten)         (None, 64896)             0         
                                                                 
 dense_1 (Dense)             (None, 16)                1038336   
                                                                 
 activation_5 (Activation)   (None, 16)                0         
                                                                 
=================================================================
Total params: 1484416 (5.66 MB)
Trainable params: 1483392 (5.66 MB)
Non-trainable params: 1024 (4.00 KB)
_________________________________________________________________
None
WARNING:absl:`lr` is deprecated in Keras optimizer, please use `learning_rate` or use the legacy optimizer, e.g.,tf.keras.optimizers.legacy.Adam.
model 2 : CNN_128_512
Model: "model_2"
_________________________________________________________________
 Layer (type)                Output Shape              Param #   
=================================================================
 input_3 (InputLayer)        [(None, 28, 28)]          0         
                                                                 
 reshape_2 (Reshape)         (None, 28, 28, 1)         0         
                                                                 
 conv2d_4 (Conv2D)           (None, 28, 28, 128)       1280      
                                                                 
 batch_normalization_4 (Bat  (None, 28, 28, 128)       512       
 chNormalization)                                                
                                                                 
 activation_6 (Activation)   (None, 28, 28, 128)       0         
                                                                 
 dropout_4 (Dropout)         (None, 28, 28, 128)       0         
                                                                 
 average_pooling2d_2 (Avera  (None, 28, 28, 128)       0         
 gePooling2D)                                                    
                                                                 
 conv2d_5 (Conv2D)           (None, 13, 13, 512)       590336    
                                                                 
 batch_normalization_5 (Bat  (None, 13, 13, 512)       2048      
 chNormalization)                                                
                                                                 
 activation_7 (Activation)   (None, 13, 13, 512)       0         
                                                                 
 dropout_5 (Dropout)         (None, 13, 13, 512)       0         
                                                                 
 flatten_2 (Flatten)         (None, 86528)             0         
                                                                 
 dense_2 (Dense)             (None, 16)                1384448   
                                                                 
 activation_8 (Activation)   (None, 16)                0         
                                                                 
=================================================================
Total params: 1978624 (7.55 MB)
Trainable params: 1977344 (7.54 MB)
Non-trainable params: 1280 (5.00 KB)
_________________________________________________________________
None
WARNING:absl:`lr` is deprecated in Keras optimizer, please use `learning_rate` or use the legacy optimizer, e.g.,tf.keras.optimizers.legacy.Adam.
model 3 : CNN_256_256
Model: "model_3"
_________________________________________________________________
 Layer (type)                Output Shape              Param #   
=================================================================
 input_4 (InputLayer)        [(None, 28, 28)]          0         
                                                                 
 reshape_3 (Reshape)         (None, 28, 28, 1)         0         
                                                                 
 conv2d_6 (Conv2D)           (None, 28, 28, 256)       2560      
                                                                 
 batch_normalization_6 (Bat  (None, 28, 28, 256)       1024      
 chNormalization)                                                
                                                                 
 activation_9 (Activation)   (None, 28, 28, 256)       0         
                                                                 
 dropout_6 (Dropout)         (None, 28, 28, 256)       0         
                                                                 
 average_pooling2d_3 (Avera  (None, 28, 28, 256)       0         
 gePooling2D)                                                    
                                                                 
 conv2d_7 (Conv2D)           (None, 13, 13, 256)       590080    
                                                                 
 batch_normalization_7 (Bat  (None, 13, 13, 256)       1024      
 chNormalization)                                                
                                                                 
 activation_10 (Activation)  (None, 13, 13, 256)       0         
                                                                 
 dropout_7 (Dropout)         (None, 13, 13, 256)       0         
                                                                 
 flatten_3 (Flatten)         (None, 43264)             0         
                                                                 
 dense_3 (Dense)             (None, 16)                692224    
                                                                 
 activation_11 (Activation)  (None, 16)                0         
                                                                 
=================================================================
Total params: 1286912 (4.91 MB)
Trainable params: 1285888 (4.91 MB)
Non-trainable params: 1024 (4.00 KB)
_________________________________________________________________
None
WARNING:absl:`lr` is deprecated in Keras optimizer, please use `learning_rate` or use the legacy optimizer, e.g.,tf.keras.optimizers.legacy.Adam.
model 4 : CNN_256_512
Model: "model_4"
_________________________________________________________________
 Layer (type)                Output Shape              Param #   
=================================================================
 input_5 (InputLayer)        [(None, 28, 28)]          0         
                                                                 
 reshape_4 (Reshape)         (None, 28, 28, 1)         0         
                                                                 
 conv2d_8 (Conv2D)           (None, 28, 28, 256)       2560      
                                                                 
 batch_normalization_8 (Bat  (None, 28, 28, 256)       1024      
 chNormalization)                                                
                                                                 
 activation_12 (Activation)  (None, 28, 28, 256)       0         
                                                                 
 dropout_8 (Dropout)         (None, 28, 28, 256)       0         
                                                                 
 average_pooling2d_4 (Avera  (None, 28, 28, 256)       0         
 gePooling2D)                                                    
                                                                 
 conv2d_9 (Conv2D)           (None, 13, 13, 512)       1180160   
                                                                 
 batch_normalization_9 (Bat  (None, 13, 13, 512)       2048      
 chNormalization)                                                
                                                                 
 activation_13 (Activation)  (None, 13, 13, 512)       0         
                                                                 
 dropout_9 (Dropout)         (None, 13, 13, 512)       0         
                                                                 
 flatten_4 (Flatten)         (None, 86528)             0         
                                                                 
 dense_4 (Dense)             (None, 16)                1384448   
                                                                 
 activation_14 (Activation)  (None, 16)                0         
                                                                 
=================================================================
Total params: 2570240 (9.80 MB)
Trainable params: 2568704 (9.80 MB)
Non-trainable params: 1536 (6.00 KB)
_________________________________________________________________
None
WARNING:absl:`lr` is deprecated in Keras optimizer, please use `learning_rate` or use the legacy optimizer, e.g.,tf.keras.optimizers.legacy.Adam.
model 5 : CNN_64_128_256
Model: "model_5"
_________________________________________________________________
 Layer (type)                Output Shape              Param #   
=================================================================
 input_6 (InputLayer)        [(None, 28, 28)]          0         
                                                                 
 reshape_5 (Reshape)         (None, 28, 28, 1)         0         
                                                                 
 conv2d_10 (Conv2D)          (None, 28, 28, 64)        640       
                                                                 
 batch_normalization_10 (Ba  (None, 28, 28, 64)        256       
 tchNormalization)                                               
                                                                 
 activation_15 (Activation)  (None, 28, 28, 64)        0         
                                                                 
 dropout_10 (Dropout)        (None, 28, 28, 64)        0         
                                                                 
 average_pooling2d_5 (Avera  (None, 28, 28, 64)        0         
 gePooling2D)                                                    
                                                                 
 conv2d_11 (Conv2D)          (None, 14, 14, 128)       32896     
                                                                 
 batch_normalization_11 (Ba  (None, 14, 14, 128)       512       
 tchNormalization)                                               
                                                                 
 activation_16 (Activation)  (None, 14, 14, 128)       0         
                                                                 
 dropout_11 (Dropout)        (None, 14, 14, 128)       0         
                                                                 
 average_pooling2d_6 (Avera  (None, 7, 7, 128)         0         
 gePooling2D)                                                    
                                                                 
 conv2d_12 (Conv2D)          (None, 3, 3, 256)         295168    
                                                                 
 batch_normalization_12 (Ba  (None, 3, 3, 256)         1024      
 tchNormalization)                                               
                                                                 
 activation_17 (Activation)  (None, 3, 3, 256)         0         
                                                                 
 dropout_12 (Dropout)        (None, 3, 3, 256)         0         
                                                                 
 flatten_5 (Flatten)         (None, 2304)              0         
                                                                 
 dense_5 (Dense)             (None, 16)                36864     
                                                                 
 activation_18 (Activation)  (None, 16)                0         
                                                                 
=================================================================
Total params: 367360 (1.40 MB)
Trainable params: 366464 (1.40 MB)
Non-trainable params: 896 (3.50 KB)
_________________________________________________________________
None
WARNING:absl:`lr` is deprecated in Keras optimizer, please use `learning_rate` or use the legacy optimizer, e.g.,tf.keras.optimizers.legacy.Adam.
model 6 : CNN_64_128_192
Model: "model_6"
_________________________________________________________________
 Layer (type)                Output Shape              Param #   
=================================================================
 input_7 (InputLayer)        [(None, 28, 28)]          0         
                                                                 
 reshape_6 (Reshape)         (None, 28, 28, 1)         0         
                                                                 
 conv2d_13 (Conv2D)          (None, 28, 28, 64)        640       
                                                                 
 batch_normalization_13 (Ba  (None, 28, 28, 64)        256       
 tchNormalization)                                               
                                                                 
 activation_19 (Activation)  (None, 28, 28, 64)        0         
                                                                 
 dropout_13 (Dropout)        (None, 28, 28, 64)        0         
                                                                 
 average_pooling2d_7 (Avera  (None, 28, 28, 64)        0         
 gePooling2D)                                                    
                                                                 
 conv2d_14 (Conv2D)          (None, 14, 14, 128)       32896     
                                                                 
 batch_normalization_14 (Ba  (None, 14, 14, 128)       512       
 tchNormalization)                                               
                                                                 
 activation_20 (Activation)  (None, 14, 14, 128)       0         
                                                                 
 dropout_14 (Dropout)        (None, 14, 14, 128)       0         
                                                                 
 average_pooling2d_8 (Avera  (None, 7, 7, 128)         0         
 gePooling2D)                                                    
                                                                 
 conv2d_15 (Conv2D)          (None, 3, 3, 192)         221376    
                                                                 
 batch_normalization_15 (Ba  (None, 3, 3, 192)         768       
 tchNormalization)                                               
                                                                 
 activation_21 (Activation)  (None, 3, 3, 192)         0         
                                                                 
 dropout_15 (Dropout)        (None, 3, 3, 192)         0         
                                                                 
 flatten_6 (Flatten)         (None, 1728)              0         
                                                                 
 dense_6 (Dense)             (None, 16)                27648     
                                                                 
 activation_22 (Activation)  (None, 16)                0         
                                                                 
=================================================================
Total params: 284096 (1.08 MB)
Trainable params: 283328 (1.08 MB)
Non-trainable params: 768 (3.00 KB)
_________________________________________________________________
None
WARNING:absl:`lr` is deprecated in Keras optimizer, please use `learning_rate` or use the legacy optimizer, e.g.,tf.keras.optimizers.legacy.Adam.
model 7 : CNN_128_192_256
Model: "model_7"
_________________________________________________________________
 Layer (type)                Output Shape              Param #   
=================================================================
 input_8 (InputLayer)        [(None, 28, 28)]          0         
                                                                 
 reshape_7 (Reshape)         (None, 28, 28, 1)         0         
                                                                 
 conv2d_16 (Conv2D)          (None, 28, 28, 128)       1280      
                                                                 
 batch_normalization_16 (Ba  (None, 28, 28, 128)       512       
 tchNormalization)                                               
                                                                 
 activation_23 (Activation)  (None, 28, 28, 128)       0         
                                                                 
 dropout_16 (Dropout)        (None, 28, 28, 128)       0         
                                                                 
 average_pooling2d_9 (Avera  (None, 28, 28, 128)       0         
 gePooling2D)                                                    
                                                                 
 conv2d_17 (Conv2D)          (None, 14, 14, 192)       98496     
                                                                 
 batch_normalization_17 (Ba  (None, 14, 14, 192)       768       
 tchNormalization)                                               
                                                                 
 activation_24 (Activation)  (None, 14, 14, 192)       0         
                                                                 
 dropout_17 (Dropout)        (None, 14, 14, 192)       0         
                                                                 
 average_pooling2d_10 (Aver  (None, 7, 7, 192)         0         
 agePooling2D)                                                   
                                                                 
 conv2d_18 (Conv2D)          (None, 3, 3, 256)         442624    
                                                                 
 batch_normalization_18 (Ba  (None, 3, 3, 256)         1024      
 tchNormalization)                                               
                                                                 
 activation_25 (Activation)  (None, 3, 3, 256)         0         
                                                                 
 dropout_18 (Dropout)        (None, 3, 3, 256)         0         
                                                                 
 flatten_7 (Flatten)         (None, 2304)              0         
                                                                 
 dense_7 (Dense)             (None, 16)                36864     
                                                                 
 activation_26 (Activation)  (None, 16)                0         
                                                                 
=================================================================
Total params: 581568 (2.22 MB)
Trainable params: 580416 (2.21 MB)
Non-trainable params: 1152 (4.50 KB)
_________________________________________________________________
None
WARNING:absl:`lr` is deprecated in Keras optimizer, please use `learning_rate` or use the legacy optimizer, e.g.,tf.keras.optimizers.legacy.Adam.
model 8 : CNN_128_128_128
Model: "model_8"
_________________________________________________________________
 Layer (type)                Output Shape              Param #   
=================================================================
 input_9 (InputLayer)        [(None, 28, 28)]          0         
                                                                 
 reshape_8 (Reshape)         (None, 28, 28, 1)         0         
                                                                 
 conv2d_19 (Conv2D)          (None, 28, 28, 128)       1280      
                                                                 
 batch_normalization_19 (Ba  (None, 28, 28, 128)       512       
 tchNormalization)                                               
                                                                 
 activation_27 (Activation)  (None, 28, 28, 128)       0         
                                                                 
 dropout_19 (Dropout)        (None, 28, 28, 128)       0         
                                                                 
 average_pooling2d_11 (Aver  (None, 28, 28, 128)       0         
 agePooling2D)                                                   
                                                                 
 conv2d_20 (Conv2D)          (None, 14, 14, 128)       65664     
                                                                 
 batch_normalization_20 (Ba  (None, 14, 14, 128)       512       
 tchNormalization)                                               
                                                                 
 activation_28 (Activation)  (None, 14, 14, 128)       0         
                                                                 
 dropout_20 (Dropout)        (None, 14, 14, 128)       0         
                                                                 
 average_pooling2d_12 (Aver  (None, 7, 7, 128)         0         
 agePooling2D)                                                   
                                                                 
 conv2d_21 (Conv2D)          (None, 3, 3, 128)         147584    
                                                                 
 batch_normalization_21 (Ba  (None, 3, 3, 128)         512       
 tchNormalization)                                               
                                                                 
 activation_29 (Activation)  (None, 3, 3, 128)         0         
                                                                 
 dropout_21 (Dropout)        (None, 3, 3, 128)         0         
                                                                 
 flatten_8 (Flatten)         (None, 1152)              0         
                                                                 
 dense_8 (Dense)             (None, 16)                18432     
                                                                 
 activation_30 (Activation)  (None, 16)                0         
                                                                 
=================================================================
Total params: 234496 (916.00 KB)
Trainable params: 233728 (913.00 KB)
Non-trainable params: 768 (3.00 KB)
_________________________________________________________________
None
WARNING:absl:`lr` is deprecated in Keras optimizer, please use `learning_rate` or use the legacy optimizer, e.g.,tf.keras.optimizers.legacy.Adam.
model 9 : CNN_128_128_192
Model: "model_9"
_________________________________________________________________
 Layer (type)                Output Shape              Param #   
=================================================================
 input_10 (InputLayer)       [(None, 28, 28)]          0         
                                                                 
 reshape_9 (Reshape)         (None, 28, 28, 1)         0         
                                                                 
 conv2d_22 (Conv2D)          (None, 28, 28, 128)       1280      
                                                                 
 batch_normalization_22 (Ba  (None, 28, 28, 128)       512       
 tchNormalization)                                               
                                                                 
 activation_31 (Activation)  (None, 28, 28, 128)       0         
                                                                 
 dropout_22 (Dropout)        (None, 28, 28, 128)       0         
                                                                 
 average_pooling2d_13 (Aver  (None, 28, 28, 128)       0         
 agePooling2D)                                                   
                                                                 
 conv2d_23 (Conv2D)          (None, 14, 14, 128)       65664     
                                                                 
 batch_normalization_23 (Ba  (None, 14, 14, 128)       512       
 tchNormalization)                                               
                                                                 
 activation_32 (Activation)  (None, 14, 14, 128)       0         
                                                                 
 dropout_23 (Dropout)        (None, 14, 14, 128)       0         
                                                                 
 average_pooling2d_14 (Aver  (None, 7, 7, 128)         0         
 agePooling2D)                                                   
                                                                 
 conv2d_24 (Conv2D)          (None, 3, 3, 192)         221376    
                                                                 
 batch_normalization_24 (Ba  (None, 3, 3, 192)         768       
 tchNormalization)                                               
                                                                 
 activation_33 (Activation)  (None, 3, 3, 192)         0         
                                                                 
 dropout_24 (Dropout)        (None, 3, 3, 192)         0         
                                                                 
 flatten_9 (Flatten)         (None, 1728)              0         
                                                                 
 dense_9 (Dense)             (None, 16)                27648     
                                                                 
 activation_34 (Activation)  (None, 16)                0         
                                                                 
=================================================================
Total params: 317760 (1.21 MB)
Trainable params: 316864 (1.21 MB)
Non-trainable params: 896 (3.50 KB)
_________________________________________________________________
None
Training model  0
Epoch 1/20
2025-05-16 10:40:35.424128: E tensorflow/core/grappler/optimizers/meta_optimizer.cc:954] layout failed: INVALID_ARGUMENT: Size of values 0 does not match size of permutation 4 @ fanin shape inmodel/dropout/dropout/SelectV2-2-TransposeNHWCToNCHW-LayoutOptimizer
…
